scripts/first_trial.pth (torch, 149839 bytes, 16 tensors)

token_embed.weight f4 [25, 16]
0.0 0.0 0.0 0.0 0.0 0.0 0.0 0.0
0.0 0.0 0.0 0.0 0.0 0.0 0.0 0.0
-0.81952167 -2.4558587 0.99630386 0.18889335 -0.85027754 -1.3990656 0.04510543 -0.55497146
1.0581906 1.6595854 -0.17482215 -0.29638234 1.3348486 0.38511932 0.64362955 -0.4484885
0.44819415 -0.3825224 -0.0251489 -0.48974532 0.04630106 0.33705622 0.5028701 -0.9251946
-1.1513231 0.70366305 0.7600821 -0.86513394 0.1981092 0.8070361 -0.24020305 -0.78593224
-1.4726737 -0.38811037 0.32286063 -0.27037433 1.3591431 -1.0416846 0.11252167 0.03619134
0.9544168 1.3378221 0.04170398 2.5653446 0.19582789 0.13152103 0.3431239 0.919046
-1.0711359 0.79043454 0.47784698 0.0057176733 -1.3566877 -0.33568075 -1.460424 -0.5759319
-0.35917893 -0.46439987 -0.45875153 1.4921439 0.08156974 -0.5393298 0.17504638 -1.3645161
-0.8279056 1.0122548 -0.35050932 -0.5329156 -0.016150653 0.40705824 0.87273514 -0.31642178
0.7336363 -1.1516075 2.2207904 -0.52396953 1.4334811 1.7815198 1.8755554 1.3008025
0.062333547 -0.5582126 1.3855784 0.95941836 -0.19556561 -2.0909884 -0.61529833 0.6260077
-1.063623 -0.37640283 -1.1547761 -1.7407581 -0.21588148 -1.3028073 -0.44827753 -1.0933005
-0.18192196 -0.4924958 -0.17727695 0.33088148 1.9558319 0.16754818 0.7630681 -0.3427747
0.7079082 0.71093726 0.30118218 -0.33032238 -1.7405845 -0.6629779 -0.26642442 -0.082260124
-0.15235591 0.89175063 1.1500024 0.87435234 -0.24326877 -0.97571176 0.010049302 1.8629797
0.80290866 1.1111035 0.24473211 1.1756337 0.42962766 -0.4696382 -1.154739 0.44828066
-0.83336073 1.4700766 -0.29218587 -1.5154616 -1.8871088 0.46553853 0.915764 0.8214612
2.210749 -0.12858588 0.32070976 0.13962613 0.3593375 1.8892448 0.6734996 0.65949154
0.7467372 -1.9504168 -1.172306 -0.5866654 0.4433564 0.37906194 -1.0131118 0.7088568
0.9873599 0.20615035 -4.731724e-05 1.642902 1.1092016 -0.096616484 0.33460286 -1.034255
1.761767 -1.1005186 -0.78334206 0.0917396 -0.87872213 1.1760585 0.2748153 1.1348833
0.5579789 -2.4227905 1.5762526 -0.7968727 -0.71149445 0.08514994 -1.9719658 -0.30919853
2.8287985 0.20230699 0.7136725 -0.39043236 0.039481774 0.13916835 -1.1497396 -0.57293755
0.5464309 1.2953503 -0.47378558 -0.38403857 1.9719236 0.48991358 0.5900274 0.9258514
0.7624093 -0.6912 0.20765823 -0.5857987 0.8763993 0.67185 -1.3688567 -0.7413313
1.3204981 0.28107026 -0.28548324 -0.92474127 0.26868764 -1.1151034 0.8601791 -0.8124358
0.13717952 0.5766986 0.16970526 0.2242931 1.3874252 -1.3063675 0.41035172 1.0478728
-0.8946017 -0.2838524 -0.94750327 -0.82065624 -0.14258006 0.39363736 -1.6359754 0.25003684
0.27509528 0.07623134 0.75141686 -1.9215287 1.8861312 -0.71599036 0.47078967 -1.4424198
0.7611234 -0.117453985 1.1740462 -0.1556562 -0.24013136 1.3328537 0.41199258 0.7408769
00000000: 0000 0000 0000 0000 0000 0000 0000 0000
00000010: 0000 0000 0000 0000 0000 0000 0000 0000
00000020: 0000 0000 0000 0000 0000 0000 0000 0000
00000030: 0000 0000 0000 0000 0000 0000 0000 0000
00000040: 2ccc 51bf ca2c 1dc0 c50d 7f3f 426d 413e
00000050: caab 59bf 9514 b3bf 79c0 383d 9c12 0ebf
00000060: ca72 873f 4b6d d43f 9404 33be 6dbf 97be
00000070: 52dc aa3f 5c2e c53e e8c4 243f 49a0 e5be
00000080: b479 e53e fad9 c3be 1105 cebc e6bf fabe
00000090: 2ea6 3d3d a292 ac3e 18bc 003f 8ed9 6cbf
000000a0: 8e5e 93bf 4323 343f be94 423f 6b79 5dbf
000000b0: 23dd 4a3e eb99 4e3f caf7 75be db32 49bf
000000c0: 9280 bcbf 67b6 c6be fd4d a53e 816e 8abe
000000d0: 67f8 ad3f ec55 85bf c371 e63d 5f3d 143d
000000e0: a954 743f c13d ab3f cbd1 2a3d 9b2e 2440
000000f0: 1b87 483e 73ad 063e f0ad af3e 9946 6b3f
00000100: fb1a 89bf eb59 4a3f 5ca8 f43e 525b bb3b
00000110: f1a7 adbf 59de abbe 2cef babf 4670 13bf
00000120: 4de6 b7be d2c5 edbe 7be1 eabe 92fe be3f
00000130: 090e a73d 8511 0abf 5c3f 333e 77a8 aebf
00000140: 9ff1 53bf 9191 813f f575 b3be 286d 08bf
00000150: 604e 84bc f069 d03e 926b 5f3f 0902 a2be
00000160: 97cf 3b3f e067 93bf 6e21 0e40 de22 06bf
00000170: 4f7c b73f d708 e43f 3312 f03f b280 a63f
00000180: 7651 7f3d 05e7 0ebf a25a b13f 719c 753f
00000190: 5a42 48be c1d2 05c0 3184 1dbf 0a42 203f
000001a0: cc24 88bf dfb7 c0be b4cf 93bf 29d1 debf
000001b0: 0910 5dbe 64c2 a6bf a284 e5be 45f1 8bbf
000001c0: c049 3abe 6928 fcbe 1788 35be 4c69 a93e
000001d0: b358 fa3f c091 2b3e 6e58 433f 2a80 afbe
000001e0: 7939 353f fcff 353f 8d34 9a3e 0420 a9be
000001f0: 79cb debf ebb8 29bf c868 88be ff77 a8bd
00000200: 3003 1cbe c549 643f 4733 933f 8ed5 5f3f
00000210: 731b 79be 3fc8 79bf d4a5 243c 1e76 ee3f
00000220: 6c8b 4d3f a438 8e3f 0e9b 7a3e 2a7b 963f
00000230: 28f8 db3e 6b74 f0be 7dce 93bf 0b85 e53e
00000240: 2157 55bf 782b bc3f 6399 95be a5fa c1bf
00000250: c88c f1bf 115b ee3e 826f 6a3f 484b 523f
00000260: e97c 0d40 04ac 03be 1234 a43e 27fa 0e3e
00000270: 16fb b73e c6d2 f13f 786a 2c3f 70d4 283f
00000280: 2b2a 3f3f 42a7 f9bf 1f0e 96bf b42f 16bf
00000290: 9cff e23e 6814 c23e a6ad 81bf a477 353f
000002a0: 9ec3 7c3f 1419 533e 8076 46b8 9d4a d23f
000002b0: 51fa 8d3f ddde c5bd 1151 ab3e 7862 84bf
000002c0: 9581 e13f cbdd 8cbf 1b89 48bf f9e1 bb3d
000002d0: eff3 60bf 1689 963f 97b4 8c3e db43 913f
000002e0: b5d7 0e3f 000f 1bc0 a5c2 c93f d9ff 4bbf
000002f0: 8024 36bf 1763 ae3d 6069 fcbf 454f 9ebe
00000300: 090b 3540 9029 4f3e 3eb3 363f c0e6 c7be
00000310: a4b7 213d 2682 0e3e ab2a 93bf 09ac 12bf
00000320: e5e2 0b3f 0ace a53f 0694 f2be b4a0 c4be
00000330: fe67 fc3f f4d5 fa3e 090c 173f 9904 6d3f
00000340: 422d 433f 7cf2 30bf 5ca4 543e e7f6 15bf
00000350: b45b 603f 5dfe 2b3f b236 afbf e3c7 3dbf
00000360: 1506 a93f 71e8 8f3e dc2a 92be d8bb 6cbf
00000370: 6d91 893e b5bb 8ebf b334 5c3f cbfb 4fbf
00000380: ca78 0c3e 85a2 133f 37c7 2d3e 17ad 653e
00000390: 2697 b13f 0d37 a7bf 9f19 d23e b220 863f
000003a0: 9e04 65bf 1a55 91be 938f 72bf 8716 52bf
000003b0: 8200 12be d68a c93e a467 d1bf d404 803e
000003c0: 4ad9 8c3e 2d1f 9c3d db5c 403f a7f4 f5bf
000003d0: bf6c f13f 254b 37bf 580b f13e 36a1 b8bf
000003e0: fcd8 423f b78b f0bd 2547 963f 5764 1fbe
000003f0: ffe4 75be f39a aa3f b1f0 d23e 1caa 3d3f

pos_embed.weight f4 [1600, 16]
0.0 0.0 0.0 0.0 0.0 0.0 0.0 0.0
0.0 0.0 0.0 0.0 0.0 0.0 0.0 0.0
0.7903991 -1.1262879 -0.41188806 0.68429476 -1.1837718 0.9460531 0.2897961 2.0512078
-0.67526674 -1.608862 1.466388 -0.017437486 -0.64378095 -1.2683411 0.67488414 -0.36769414
0.1697249 -0.52473235 -0.4147668 -0.8988057 -0.57866156 -0.2514801 -0.6680155 -0.7156817
-0.9527967 0.7479811 -0.7444513 -0.3747248 1.6517776 -2.825956 -1.3606577 -1.5073075
-1.3982633 1.3110509 -0.8683414 1.3681538 -0.48337677 -0.5849219 -1.6073459 1.0734365
-0.09412789 1.0746787 -0.07796824 0.59136987 -0.736209 1.7502007 1.8215925 -0.48613513
0.62537754 0.08306323 0.7508576 -0.9886381 -0.48667413 -0.45863652 -0.54912436 -0.10362129
0.03152995 0.10568647 2.5880368 -1.6858175 -0.13103129 -0.23263986 -0.10697475 -0.9979157
-0.27879983 0.5890279 0.2328668 0.058852963 -0.9318688 -0.13181427 0.12046611 -0.3848911
-1.232511 -1.2257243 -0.46255317 -1.7918969 -2.081988 -1.28667 -0.019758463 0.27427515
1.2683299 0.13830975 -0.7053533 -0.66952306 0.14512928 0.7358487 -0.4810515 0.62059695
1.6887189 0.024148129 1.7931592 -0.8778489 -0.10880436 -0.48234534 -0.33799243 -0.6772717
0.6005808 1.2433248 -0.6977886 0.9371164 0.35744974 0.8090359 -0.6092444 -2.4424074
0.29913172 0.40297386 0.18079503 0.4743665 -0.014288409 0.33479488 1.1699454 0.1866146
-1.2428646 1.9340867 2.015807 0.23691267 -0.10940544 -0.87414426 0.888043 -0.82978755
1.0253718 1.4984229 1.4837943 -1.0729651 -0.09691958 1.0313268 0.0007980548 -0.6593254
0.071592264 1.7660666 0.47574717 1.0476333 -0.5496424 -0.18652815 -0.02243642 -0.043027237
0.9530457 1.953743 -2.244917 0.43245867 0.7849831 -0.14998107 -0.60771936 0.18822496
-1.1712703 3.0653741 0.44463238 0.3511401 0.67991424 -0.2402568 0.5449413 0.19490597
1.3863665 0.99017406 -0.50309587 1.8841747 -0.88147503 1.7055998 0.10755721 -0.426568
-1.8319631 1.4682019 0.085960746 -0.34113863 -0.86503774 -0.8867025 -0.02600129 0.70006627
-0.7857785 1.2694521 0.18078448 1.073157 0.4809183 0.17095694 -0.3861207 -0.55391824
-1.0214247 2.1212149 -0.41206014 -0.9623961 -3.3443537 0.04485602 -0.445731 -0.31627917
0.9144019 -1.0079044 1.2081668 -0.15435533 0.86655486 1.3692728 0.6805187 -1.0484501
-0.16530906 -1.1972682 -2.155608 -1.5204943 0.6089683 -1.5677722 -0.026507694 -1.1318094
-0.24095623 -0.4445841 0.2589844 0.8128286 -0.49689323 -0.6140461 -0.4465872 -0.34972095
1.1852261 0.53978556 1.2980074 0.4334225 -0.3285689 -1.7280418 0.7435166 0.04043988
0.33982685 0.9642817 0.98177177 -0.07101045 0.21152873 -0.92390126 0.24801156 -0.4622017
-1.5862197 -0.7486915 0.8568435 -2.041186 -1.1630467 0.14706898 0.050206713 -0.5415031
0.97934884 -1.2994823 0.32378373 0.84919894 -0.5089742 1.003923 0.6155767 -0.40187743
00000000: 0000 0000 0000 0000 0000 0000 0000 0000
00000010: 0000 0000 0000 0000 0000 0000 0000 0000
00000020: 0000 0000 0000 0000 0000 0000 0000 0000
00000030: 0000 0000 0000 0000 0000 0000 0000 0000
00000040: 9857 4a3f 342a 90bf fee2 d2be f12d 2f3f
00000050: d685 97bf 8930 723f 2860 943e fd46 0340
00000060: 48de 2cbf 31ef cdbf 9ab2 bb3f 0fd9 8ebc
00000070: d4ce 24bf 0059 a2bf 35c5 2c3f 6842 bcbe
00000080: 5dcc 2d3e dc54 06bf 505c d4be 2118 66bf
00000090: 2a23 14bf 00c2 80be 1003 2bbf ea36 37bf
000000a0: 7cea 73bf b07b 3f3f 5c94 3ebf eedb bfbe
000000b0: 736d d33f 77dc 34c0 082a aebf 74ef c0bf
000000c0: 4bfa b2bf 84d0 a73f 9f4b 5ebf aa1f af3f
000000d0: 297d f7be 71bd 15bf 83bd cdbf 5e66 893f
000000e0: 20c6 c0bd 128f 893f d0ad 9fbd 0464 173f
000000f0: 3178 3cbf 9406 e03f f129 e93f b4e6 f8be
00000100: be18 203f 0e1d aa3d 3438 403f 6317 7dbf
00000110: 5a2d f9be 68d2 eabe 6a93 0cbf 6637 d4bd
00000120: 8d25 013d 2672 d83d 65a2 2540 dec8 d7bf
00000130: 112d 06be 2539 6ebe 9415 dbbd 6777 7fbf
00000140: dabe 8ebe 88ca 163f a274 6e3e ce0f 713d
00000150: f48e 6ebf 52fa 06be f0b6 f63d 7210 c5be
00000160: ecc2 9dbf 89e4 9cbf c5d3 ecbe e15c e5bf
00000170: 4b3f 05c0 9ab1 a4bf 80dc a1bc cb6d 8c3e
00000180: a258 a23f 12a1 0d3e 0992 34bf dd65 2bbf
00000190: c59c 143e 9560 3c3f 624c f6be 71df 1e3f
000001a0: f127 d83f 4cd2 c53c 3e86 e53f b5ba 60bf
000001b0: d2d4 debd f8f5 f6be 580d adbe ae61 2dbf
000001c0: aabf 193f 4425 9f3f 46a2 32bf dce6 6f3f
000001d0: a703 b73e fa1c 4f3f 71f7 1bbf 6750 1cc0
000001e0: cb27 993e 9752 ce3e 5522 393e 2ae0 f23e
000001f0: ee19 6abc 3c6a ab3e c5c0 953f e617 3f3e
00000200: 3016 9fbf 2790 f73f fb02 0140 3c99 723e
00000210: f60f e0bd ebc7 5fbf c956 633f f56c 54bf
00000220: 623f 833f 52cc bf3f f9ec bd3f ec56 89bf
00000230: c67d c6bd 8402 843f 8d34 513a 8dc9 28bf
00000240: f79e 923d 780e e23f 2295 f33e d918 863f
00000250: 5db5 0cbf 3c01 3fbe 95cc b7bc 543d 30bd
00000260: cefa 733f 4014 fa3f b8ac 0fc0 396b dd3e
00000270: a7f4 483f a394 19be 7f93 1bbf 0bbe 403e
00000280: 2fec 95bf 172f 4440 dba6 e33e a3c8 b33e
00000290: dc0e 2e3f e105 76be 4681 0b3f 6e95 473e
000002a0: 7574 b13f 0c7c 7d3f e4ca 00bf a32c f13f
000002b0: 59a8 61bf 1851 da3f f446 dc3d 1f67 dabe
000002c0: c47d eabf 0aee bb3f 300c b03d b9a9 aebe
000002d0: 1d73 5dbf effe 62bf a800 d5bc 8b37 333f
000002e0: c828 49bf 687d a23f 911f 393e 355d 893f
000002f0: ec3a f63e 560f 2f3e 9db1 c5be 96cd 0dbf
00000300: 0bbe 82bf fcc1 0740 8cf9 d2be 975f 76bf
00000310: e409 56c0 f2ba 373d db36 e4be 58ef a1be
00000320: 3e16 6a3f 0303 81bf 36a5 9a3f 530f 1ebe
00000330: 8ad6 5d3f 5544 af3f 7936 2e3f 9d33 86bf
00000340: c746 29be 1640 99bf 7bf5 09c0 8f9f c2bf
00000350: 59e5 1b3f c2ac c8bf aa26 d9bc 21df 90bf
00000360: 3bbd 76be 87a0 e3be 9a99 843e 8915 503f
00000370: ca68 febe 2032 1dbf 14a7 e4be a00e b3be
00000380: 7db5 973f 632f 0a3f 1b25 a63f 8ee9 dd3e
00000390: 2f3a a8be 7930 ddbf 1b57 3e3f 4aa4 253d
000003a0: c9fd ad3e 2adb 763f 6555 7b3f ed6d 91bd
000003b0: fd9a 583e cb84 6cbf bef6 7d3e b4a5 ecbe
000003c0: 3f09 cbbf 3faa 3fbf 185a 5b3f cba2 02c0
000003d0: b7de 94bf 4099 163e 8ea5 4d3d f29f 0abf
000003e0: 9bb6 7a3f 7055 a6bf fbc6 a53e 1a65 593f
000003f0: 224c 02bf 8d80 803f 6f96 1d3f e1c2 cdbe

blocks.0.feedforward.0.weight f4 [256, 16]
-0.044489153 0.07269111 0.06541343 0.052356422 -0.17201856 0.19452915 0.27298778 -0.25983205
0.08304095 0.36164275 -0.12459182 -0.18816692 -0.106883466 -0.14229615 -0.23524672 0.16989875
0.00013294406 0.06539018 -0.18085675 -0.040999483 0.11541172 0.08344686 -0.09534258 0.11082122
0.016624257 0.27719483 -0.033489194 0.1446373 0.2898022 0.19069195 -0.062153723 0.044072084
-0.1142475 0.066744894 0.1780878 0.27028513 -0.09547547 -0.1241522 0.21728867 0.08518339
0.14755124 -0.22688241 -0.054637976 0.16053887 0.33248124 0.09446503 0.23125263 0.07649916
-0.0072564348 -0.057040077 -0.065976195 -0.41069448 0.2508993 -0.008719288 -0.24760602 0.1717407
0.03187015 0.30410522 0.11782853 0.07836586 -0.070312575 0.058909222 -0.07135377 0.18624173
0.05791634 -0.30831003 0.028495803 0.1667331 -0.0069999634 -0.081971414 -0.041799657 -0.2672549
-0.04100556 0.16725147 -0.28292894 -0.018430207 -0.18405773 -0.2279017 0.23165974 -0.17294075
0.25672862 -0.11980934 0.1789085 -0.3408898 0.12634788 -0.0145565355 0.08941723 0.18003651
-0.048318658 -0.17995583 0.16377404 0.23518446 0.026425019 0.0110748075 0.010541524 -0.14006111
0.15233481 -0.02109442 0.08175243 -0.2142968 0.057126973 0.111189015 0.17082332 -0.056591507
0.042118203 -0.08928164 0.11693732 -0.20356065 -0.00415284 -0.15491647 -0.285455 -0.17212462
0.49470598 0.09657053 0.19887383 -0.31981215 -0.1671383 0.30103758 -0.13666762 -0.15181914
0.15861775 0.105008855 0.12896715 -0.05369562 0.37172756 0.36139193 0.35991812 0.11740684
0.17631543 -0.06279217 -0.118334375 -0.34653357 0.060023494 -0.050928146 -0.061460517 -0.04578588
-0.10416889 -0.2615268 0.13580371 0.2594767 -0.08209326 -0.11485301 -0.3101878 -0.24430814
0.03968879 -0.4048521 -0.13878196 0.092110775 -0.011696983 -0.09343245 0.09176556 -0.15660682
0.0333203 -0.09449488 0.009330048 0.02056134 0.07482676 -0.13393052 0.16588418 -0.1355192
0.08341323 -0.033331387 -0.2666219 0.013096843 -0.32106063 0.24624814 0.19724327 0.1560334
0.1809055 0.13785556 -0.18917832 0.29153466 -0.07617596 0.01698571 -0.0067468476 -0.099334724
-0.03964216 0.11270535 -0.25081882 0.16176961 0.23283842 0.13014716 -0.103105724 -0.13565876
-0.066003144 -0.14827837 0.21740535 -0.2688291 -0.027652785 -0.16857705 -0.3525143 -0.048955366
0.134201 -0.30449703 0.08656668 0.20245513 -0.12616266 -0.09971974 0.14889255 -0.40582654
-0.1077087 -0.19614387 0.009243044 -0.19900894 -0.068653546 -0.08007628 -0.057888202 -0.11243643
-0.044832386 0.27153736 0.34356186 -0.07196696 -0.2531006 -0.012053084 -0.1144042 0.15015706
0.24581741 0.034688406 0.17112924 -0.30475202 -0.039606508 -0.35649785 -0.13307303 -0.19689387
-0.11597692 -0.047154084 -0.07294844 -0.19714998 0.035839815 -0.08014373 0.0073896605 0.048758
-0.14799127 -0.26642662 0.3499979 0.056014445 -0.05570574 0.22781269 -0.05529303 -0.119372286
0.20642406 -0.19671233 0.14937638 0.20653048 0.10246584 0.07605589 0.109938845 0.26437306
-0.020449223 0.04992822 0.18318243 0.13120697 -0.0444854 0.063067175 -0.27224833 -0.11830684
00000000: 423a 36bd 14df 943d 7af7 853d b073 563d
00000010: a225 30be a632 473e 0ec5 8b3e b508 85be
00000020: 6011 aa3d 3d29 b93e ff29 ffbd d4ae 40be
00000030: b8e5 dabd 15b6 11be 84e4 70be f0f9 2d3e
00000040: e666 0b39 49eb 853d 8332 39be 13ef 27bd
00000050: fb5c ec3d 30e6 aa3d f842 c3bd 3cf6 e23d
00000060: 982f 883c 7bec 8d3e f72b 09bd cd1b 143e
00000070: f460 943e c044 433e e794 7ebd ee84 343d
00000080: 98fa e9bd 8cb1 883d a65c 363e d062 8a3e
00000090: a588 c3bd 8243 febd ec80 5e3e a174 ae3d
000000a0: ac17 173e dd53 68be 12cc 5fbd 4d64 243e
000000b0: fb3a aa3e e276 c13d 7dcd 6c3e 97ab 9c3d
000000c0: 63c7 edbb dba2 69bd 871e 87bd 8c46 d2be
000000d0: e075 803e 58db 0ebc 6f8c 7dbe cbdc 2f3e
000000e0: 468a 023d aeb3 9b3e 1650 f13d 487e a03d
000000f0: 0a00 90bd cc4a 713d ed21 92bd 27b6 3e3e
00000100: af39 6d3d d0da 9dbe 0870 e93c 15bc 2a3e
00000110: f35f e5bb a1e0 a7bd 1e36 2bbd a2d5 88be
00000120: 72f5 27bd f843 2b3e 10dc 90be f2fa 96bc
00000130: a179 3cbe 105f 69be 3638 6d3e 6117 31be
00000140: ef71 833e 995e f5bd ca33 373e 1c89 aebe
00000150: 5761 013e 897e 6ebc 6120 b73d 7e5b 383e
00000160: c9e9 45bd 5746 38be 62b4 273e 32d4 703e
00000170: 4879 d83c 1c73 353c 5bb6 2c3c 2e6c 0fbe
00000180: a8fd 1b3e 35ce acbc d16d a73d 9f70 5bbe
00000190: f9fd 693d 11b7 e33d 4fec 2e3e 7fcc 67bd
000001a0: 2384 2c3d 4bd9 b6bd d57c ef3d 3472 50be
000001b0: 8c14 88bb 6ca2 1ebe 2827 92be 7041 30be
000001c0: 1a4a fd3e c5c6 c53d 95a5 4b3e 6bbe a3be
000001d0: 4d26 2bbe 9921 9a3e 99f2 0bbe 7a76 1bbe
000001e0: b16c 223e e20e d73d f70f 043e f0ef 5bbd
000001f0: 1353 be3e 5d08 b93e 3047 b83e ff72 f03d
00000200: 088c 343e 2e99 80bd 4b59 f2bd d96c b1be
00000210: 32db 753d 089a 50bd 06be 7bbd fa89 3bbd
00000220: 8056 d5bd d7e6 85be 2110 0b3e 21da 843e
00000230: 8320 a8bd 0e38 ebbd efd0 9ebe ea2b 7abe
00000240: b690 223d c648 cfbe dc1c 0ebe 93a4 bc3d
00000250: b4a4 3fbc 8359 bfbd 95ef bb3d 8a5d 20be
00000260: de7a 083d 8886 c1bd 0fdd 183c 4170 a83c
00000270: c63e 993d 1525 09be 8bdd 293e 8cc5 0abe
00000280: 8ed4 aa3d 7e86 08bd aa82 88be 2494 563c
00000290: 0f62 a4be 7928 7c3e 24fa 493e 38c7 1f3e
000002a0: 4b3f 393e 022a 0d3e f6b7 41be 0844 953e
000002b0: 2402 9cbd 9e25 8b3c a914 ddbb 0170 cbbd
000002c0: d15f 22bd 10d2 e63d 536b 80be efa6 253e
000002d0: 326d 6e3e 4c45 053e 1829 d3bd 21ea 0abe
000002e0: a82c 87bd 49d6 17be 829f 5e3e f8a3 89be
000002f0: 1888 e2bc 769f 2cbe c17c b4be 6c85 48bd
00000300: fd6b 093e 09e7 9bbe df49 b13d 6650 4f3e
00000310: c930 01be dd39 ccbd 4a77 183e 7fc8 cfbe
00000320: 6196 dcbd f0d9 48be 2370 173c 00c9 4bbe
00000330: 3b9a 8cbd 08ff a3bd 2e1c 6dbd 1245 e6bd
00000340: 2aa2 37bd f206 8b3e 57e7 af3e 6a63 93bd
00000350: 6796 81be 4c7a 45bc c04c eabd c6c2 193e
00000360: 8fb7 7b3e 6e15 0e3d 813c 2f3e 7508 9cbe
00000370: 6f3a 22bd e386 b6be 4c44 08be 8c9e 49be
00000380: 4f85 edbd a424 41bd fe65 95bd afe1 49be
00000390: c5cc 123d 6522 a4bd f724 f23b 78b6 473d
000003a0: 068b 17be 1269 88be ed32 b33e 676f 653d
000003b0: b42b 64bd bb47 693e f27a 62bd 7579 f4bd
000003c0: d460 533e f56e 49be 1ff6 183e ba7c 533e
000003d0: 9cd9 d13d 31c3 9b3d 9e27 e13d e85b 873e
000003e0: 2185 a7bc 8981 4c3d 2d94 3b3e 1f5b 063e
000003f0: 5336 36bd 5d29 813d 2264 8bbe db4a f2bd

blocks.0.feedforward.0.bias f4 [256]
-0.21833481 -0.30652922 0.013882175 -0.23835005 -0.060001764 -0.14697847 0.1288148 -0.056136213
0.05275328 -0.041684818 0.2932453 0.22963086 0.02472592 -0.10583371 0.2696564 -0.27194583
0.028269658 0.11727048 -0.15497667 -0.041611105 0.008939377 0.074402496 0.20960328 0.101504296
-0.16501048 0.12804176 -0.010814418 -0.016461631 -0.15819363 0.2893257 -0.318492 0.21485528
-0.17807907 0.08047572 -0.2282197 0.17538363 -0.22318861 0.1468519 0.10097953 0.061489962
0.080023326 -0.11242257 -0.21810085 0.17090622 0.1808853 0.14351344 0.13746361 0.1612783
0.03246175 0.20155329 0.015994389 -0.12087714 -0.22597718 -0.21795778 0.22241178 0.11110108
-0.0799366 -0.051024362 -0.09809789 0.0600571 0.13891707 -0.2459373 -0.15432346 0.117060125
-0.15722996 0.057402797 0.11637847 -0.1998739 -0.1470946 -0.27690902 -0.08926667 -0.15928704
-0.16193885 -0.10343256 -0.02589427 0.025593346 -0.23767607 0.0055090836 -0.28973883 -0.0811617
0.0920608 0.09399186 0.08631463 -0.13097622 0.08060022 -0.07743771 -0.037840042 -0.13745904
-0.0650792 -0.1676835 -0.18611981 0.030892625 -0.15685128 -0.03821934 0.14945808 0.05598811
-0.085990146 0.044828605 -0.093425035 0.100282855 -0.3488753 0.25171265 0.13028947 -0.25677478
-0.11048074 0.30030495 0.20157428 0.2754992 -0.29219303 -0.122119516 -0.31701502 0.033213243
0.21553351 -0.17471617 0.071876556 0.110810675 -0.20990272 0.12004098 -0.16007341 -0.050764058
-0.07874314 -0.17973928 0.1967663 0.09470119 -0.22245798 -0.018623328 0.29637963 -0.13596126
-0.27546138 0.26039478 -0.2106472 -0.086824805 -0.13564934 0.058176056 -0.08063148 -0.16976362
-0.16815105 -0.0062115057 -0.14963719 0.15170528 0.034329988 -0.005973587 -0.022077885 0.019004844
-0.058127213 -0.105218716 -0.04288806 0.22449775 0.116198584 -0.090617456 -0.16463588 0.26569024
-0.28337094 0.16005442 0.06634512 0.025249086 -0.15398395 0.110305086 0.16662629 0.21184425
0.3700179 -0.012827834 0.06052059 -0.08660193 -0.26085368 -0.15043141 -0.28639165 -0.26596832
-0.19945642 -0.17808676 -0.09483869 0.14724202 0.10234479 -0.10468665 -0.07623648 -0.078028664
0.032980464 -0.2021115 0.14087118 -0.13422784 -0.03941195 0.026035415 0.07394533 -0.07932284
-0.07294404 -0.25224075 0.018495137 0.20088924 -0.20256892 0.033220004 0.14193323 0.08775403
-0.1785301 0.18075347 -0.2269039 0.114325024 -0.056446053 0.101043984 -0.068332635 -0.22314519
-0.11386608 0.12452478 0.055909887 0.082262605 0.20479478 -0.027887963 0.21254621 -0.002260889
-0.12036231 0.16568525 0.09448036 0.00995738 0.13363773 0.13599019 0.2496562 -0.09406599
-0.078503855 -0.035586093 -0.077681914 -0.08015425 0.04933539 0.07257521 -0.06133577 -0.13097085
0.2330302 -0.21253064 0.27477545 -0.15570861 -0.16462402 -0.003794415 0.1198693 0.1955618
-0.03539939 0.23887102 0.10756399 -0.16172186 -0.22664523 -0.12221463 0.031368017 -0.15523775
-0.19607484 -0.11047906 -0.111996725 -0.23276505 0.18530257 -0.12528366 0.20938617 0.12190657
-0.045858845 0.22432238 0.07546663 0.27455595 -0.18848024 0.046940524 0.009345594 0.039768174
00000000: 2993 5fbe 66f1 9cbe 1072 633c 0912 74be
00000010: 69c4 75bd 8681 16be 07e8 033e 16ef 65bd
00000020: d313 583d b3bd 2abd 3f24 963e 5a24 6b3e
00000030: 038e ca3c 58bf d8bd 6710 8a3e 7c3c 8bbe
00000040: c595 e73c 812b f03d 34b2 1ebe 6870 2abd
00000050: 7776 123c 5660 983d 3ea2 563e 7ce1 cf3d
00000060: 82f8 28be 611d 033e f52e 31bc 8bda 86bc
00000070: 83fd 21be 8022 943e 6211 a3be 0603 5c3e
00000080: 5c5a 36be 74d0 a43d 6db2 69be c497 333e
00000090: 8e8b 64be 5860 163e 5bce ce3d e6dc 7b3d
000000a0: 45e3 a33d ce3d e6bd d455 5fbe 0a02 2f3e
000000b0: ff39 393e 30f5 123e 43c3 0c3e 2426 253e
000000c0: 9df6 043d fc63 4e3e aa06 833c 6f8e f7bd
000000d0: 9066 67be 5330 5fbe eabf 633e f788 e33d
000000e0: cdb5 a3bd ecfe 50bd 8ce7 c8bd 6ffe 753d
000000f0: 4740 0e3e fdd6 7bbe f806 1ebe 38bd ef3d
00000100: e400 21be 321f 6b3d d657 ee3d beab 4cbe
00000110: f89f 16be 05c7 8dbe 72d1 b6bd 241c 23be
00000120: 4cd3 25be 73d4 d3bd 3820 d4bc 23a9 d13c
00000130: 5b61 73be 8b85 b43b a658 94be 1b38 a6bd
00000140: 5f8a bc3d ce7e c03d bac5 b03d a11e 06be
00000150: ba11 a53d a997 9ebd 29fe 1abd 10c2 0cbe
00000160: 3e48 85bd 39b5 2bbe 3196 3ebe 8812 fd3c
00000170: 9f9d 20be e28b 1cbd 8a0b 193e ca53 653d
00000180: 9a1b b0bd 339e 373d a055 bfbd 1961 cd3d
00000190: c99f b2be 7be0 803e 9a6a 053e fc77 83be
000001a0: ba43 e2bd 92c1 993e 7d69 4e3e 3b0e 8d3e
000001b0: 539a 95be cc19 fabd cb4f a2be 9c0a 083d
000001c0: d1b4 5c3e cce8 32be 0434 933d b5f0 e23d
000001d0: bdf0 56be 0cd8 f53d 49ea 23be f9ed 4fbd
000001e0: 1544 a1bd 930d 38be 1b7d 493e b3f2 c13d
000001f0: 06cc 63be f38f 98bc 12bf 973e 6e39 0bbe
00000200: 4609 8dbe 7752 853e e6b3 57be 34d1 b1bd
00000210: a9e7 0abe 044a 6e3d 1e22 a5bd 84d6 2dbe
00000220: ca2f 2cbe e389 cbbb 7e3a 19be a158 1b3e
00000230: 9a9d 0c3d 14be c3bb aedc b4bc 0cb0 9b3c
00000240: cd16 6ebd e97c d7bd 64ab 2fbd bde2 653e
00000250: 86f9 ed3d a595 b9bd 4f96 28be 8d08 883e
00000260: ff15 91be 4ee5 233e f3df 873d 2cd7 ce3c
00000270: f8ad 1dbe a2e7 e13d 15a0 2a3e b3ed 583e
00000280: fc72 bd3e d62b 52bc 70e4 773d 5a5c b1bd
00000290: 9d8e 85be b10a 1abe eda1 92be 002d 88be
000002a0: 4e3e 4cbe 605c 36be c93a c2bd 9dc6 163e
000002b0: 259a d13d f465 d6bd df21 9cbd 7ecd 9fbd
000002c0: 8616 073d 51f6 4ebe 8940 103e 0673 09be
000002d0: 6d6e 21bd 3948 d53c a670 973d 0374 a2bd
000002e0: af63 95bd b325 81be 1d83 973c e9b5 4d3e
000002f0: 3a6e 4fbe b311 083d f256 113e 63b8 b33d
00000300: 98d0 36be 7017 393e 7f59 68be 3d23 ea3d
00000310: fa33 67bd 26f0 ce3d fbf1 8bbd 2c80 64be
00000320: 9f32 e9bd d906 ff3d c401 653d 4c79 a83d
00000330: b9b5 513e 4c75 e4bc b7a5 593e 6c2b 14bb
00000340: 8480 f6bd 65a9 293e eb7e c13d 4724 233c
00000350: 54d8 083e 0341 0b3e e0a5 7f3e aba5 c0bd
00000360: a1c6 a0bd b9c2 11bd b217 9fbd e927 a4bd
00000370: e813 4a3d 50a2 943d 373b 7bbd 391d 06be
00000380: 789f 6e3e a2a1 59be 5eaf 8c3e 1472 1fbe
00000390: 3393 28be b8ab 78bb 097e f53d 5a41 483e
000003a0: f3fe 10bd 9b9a 743e 824a dc3d 6a9a 25be
000003b0: b015 68be aa4b fabd c07b 003d a5f6 1ebe
000003c0: d8c7 48be d842 e2bd 8a5e e5bd f659 6ebe
000003d0: f5bf 3d3e 5c4a 00be 5469 563e 27aa f93d
000003e0: 7cd6 3bbd c4b4 653e 408e 9a3d 9992 8c3e
000003f0: f700 41be b544 403d 431e 193c f4e3 223d

blocks.0.feedforward.2.weight f4 [16, 256]
0.10714993 0.051142756 0.030007316 0.00015702244 0.0069691692 0.04227328 0.0117958775 0.13073763
0.0237555 0.06631162 0.061359562 0.037354264 0.07476315 -0.04615312 0.030020647 -0.041845888
-0.015617299 0.037476342 0.0299915 0.0012901254 0.050934162 0.066097274 0.05504089 0.048239976
0.015308285 -0.002367886 0.0009759904 0.11556489 -0.0024141101 -0.038192257 0.031068835 -0.05695053
0.023256276 0.098255664 0.011672176 0.0039629554 0.04028994 -0.028114788 -0.0157283 0.07146327
-0.04294049 -0.011872601 0.026965875 -0.033425324 0.018336117 0.008283958 0.06279642 0.04067195
0.094494075 -0.019437848 0.05244751 -0.06489622 0.09961202 -0.0045457943 -0.005063476 0.09147729
0.03783032 0.00017256441 0.036059264 0.0010068414 -0.008836503 0.05972601 -0.15151387 0.02674766
-0.04692583 0.09049145 0.08964392 0.037858747 -0.02420364 -0.012562019 0.08664227 -0.04014466
0.0060509243 0.011374827 0.072147116 -0.04940766 -0.025956798 0.019098038 0.08563116 0.104017965
-0.03417597 0.0032310956 0.047377992 -0.015354983 0.06438099 0.10226968 0.011244841 0.05889941
-0.004826898 0.046265587 -0.025330577 0.05321183 0.017101178 0.06767608 -0.015330816 0.010510127
-0.024844505 0.028670307 0.0736004 0.022095598 -0.02989795 0.051325116 -0.043253865 0.01329337
-0.054214675 -0.024334349 0.035466947 -0.0036953876 0.054251 0.110108726 0.070759505 0.06631722
0.069013804 0.039386988 -0.022944363 -0.11630338 0.073417835 0.047788445 0.026266072 0.04365949
-3.4835306e-05 0.01027043 -0.004634356 -0.014987853 0.084193684 -0.058318406 0.059147242 0.06290499
-0.064833425 -0.019922592 -0.075705804 -0.00284269 0.13160697 0.0760102 0.052130837 -0.06787789
0.07308751 0.059279934 0.028134951 -0.057874702 -0.14604124 0.064617835 -0.015644765 0.01554174
-0.02738107 -0.046041943 0.08743112 0.08426319 0.023411928 0.03238954 0.053519566 0.02380379
-0.0115353 -0.02416064 0.057959173 0.047886405 -0.07751711 -0.042327706 0.07229188 0.108289875
0.057503168 0.11975305 0.07195186 -0.049791135 0.078270204 -0.008095085 -0.009034492 -0.028280728
0.055040736 0.07972058 0.09150335 0.0485916 -0.064574145 0.058011364 -0.039408617 0.11955471
-0.037558217 -0.042603254 0.123251535 0.042059038 -0.028667724 0.041636053 0.05343508 -0.10489217
0.023258058 0.012405603 -0.054100193 0.075922325 -0.045233794 0.020241223 -0.035204116 -0.002645033
0.034576707 -0.02544198 -0.06968859 0.022868507 0.001715398 0.029660657 -0.02032373 0.017259248
-0.019899273 0.019748155 0.08286175 0.062076457 -0.034533612 -0.012268887 0.07547056 -0.0037353649
0.036741335 0.10562181 -0.029164499 0.015101739 -0.017983388 0.03134361 0.100358255 0.03239856
0.106169395 0.023069354 0.028038435 0.09403553 -0.013912956 0.07161248 -0.10541268 -0.07534392
0.023836298 0.07531015 0.017001608 -0.12278819 0.02400883 -0.0352066 -0.021514405 0.07319976
0.068198815 -0.0011051958 -0.0034608121 0.06770889 0.062572874 -0.026502755 -0.058186494 -0.07207006
-0.011761052 0.069133826 -0.07119473 0.05114335 -0.017325178 0.05646223 -0.055578772 -0.040035408
-0.004488211 -0.0072625326 -0.026440293 0.025191016 0.106209844 0.03646831 -0.009755726 -0.0014183953
00000000: 6c71 db3d 117b 513d e7d1 f53c 64a6 2439
00000010: a15d e43b bf26 2d3d 7f43 413c 16e0 053e
00000020: e59a c23c 63ce 873d 2a54 7b3d c900 193d
00000030: 6c1d 993d 0e0b 3dbd dced f53c 9866 2bbd
00000040: b3df 7fbc cb80 193d bcb0 f53c 6d19 a93a
00000050: 57a0 503d 025e 873d 8e72 613d 4897 453d
00000060: 9acf 7a3c 892e 1bbb 9bd9 7f3a 49ad ec3d
00000070: 0c36 1ebb 7c6f 1cbd 1284 fe3c f544 69bd
00000080: f283 be3c 443a c93d a83c 3f3c aedb 813b
00000090: 1007 253d fc50 e6bc a3d8 80bc 565b 923d
000000a0: 5ee2 2fbd 4c85 42bc 8ae7 dc3c fee8 08bd
000000b0: a035 963c 70b9 073c 699b 803d a197 263d
000000c0: 1c86 c13d 1f3c 9fbc 33d3 563d 4fe8 84bd
000000d0: 6301 cc3d e3f4 94bb 84eb a5bb 7258 bb3d
000000e0: f7f3 1a3d 68f2 3439 e1b2 133d fef7 833a
000000f0: fbc6 10bc 43a3 743d 7426 1bbe e91d db3c
00000100: 4d35 40bd 9553 b93d 3b97 b73d c611 1b3d
00000110: b646 c6bc edd0 4dbc 8171 b13d ba6e 24bd
00000120: d546 c63b 7b5d 3a3c dec1 933d b05f 4abd
00000130: 5aa3 d4bc 7d73 9c3c 645f af3d 5f07 d53d
00000140: 1afc 0bbd cac0 533b 6d0f 423d 7793 7bbc
00000150: 2eda 833d c472 d13d 483c 383c 8240 713d
00000160: f52a 9ebb fc80 3d3d 1282 cfbc a6f4 593d
00000170: c517 8c3c c299 8a3d 1a2e 7bbc ab32 2c3c
00000180: b486 cbbc fedd ea3c cebb 963d d401 b53c
00000190: 8cec f4bc 493a 523d f72a 31bd 6fcc 593c
000001a0: 3510 5ebd d458 c7bc ca45 113d 512e 72bb
000001b0: 4c36 5e3d af80 e13d 5cea 903d 53d1 873d
000001c0: 1c57 8d3d 4054 213d d1f5 bbbc 7730 eebd
000001d0: 175c 963d d1bd 433d f22b d73c 4bd4 323d
000001e0: 201c 12b8 4e45 283c ccdb 97bb 9d8f 75bc
000001f0: bd6d ac3d 48df 6ebd 6144 723d 55d4 803d
00000200: 63c7 84bd b434 a3bc a50b 9bbd 6d4c 3abb
00000210: fac3 063e 3cab 9b3d 2587 553d 9003 8bbd
00000220: e8ae 953d 84cf 723d 457b e63c 060e 6dbd
00000230: d68b 15be 5b56 843d 7329 80bc c8a2 7e3c
00000240: 444e e0bc 7a96 3cbd 160f b33d 2e92 ac3d
00000250: 5fca bf3c e5aa 043d 5537 5b3d 2a00 c33c
00000260: 8efe 3cbc 89ec c5bc 9966 6d3d 8924 443d
00000270: 4ac1 9ebd d15f 2dbd c40d 943d 15c7 dd3d
00000280: 7188 6b3d 1641 f53d 7f5b 933d caf1 4bbd
00000290: 214c a03d 3fa1 04bc 6805 14bc fcac e7bc
000002a0: 6572 613d 8b44 a33d 1c66 bb3d fc07 473d
000002b0: 733f 84bd 539d 6d3d ee6a 21bd 1ad9 f43d
000002c0: a5d6 19bd c080 2ebd 4d6b fc3d 1946 2c3d
000002d0: 93d8 eabc 918a 2a3d bede 5a3d b5d1 d6bd
000002e0: af87 be3c df40 4b3c 2a98 5dbd 2a7d 9b3d
000002f0: 1247 39bd ecd0 a53c 3132 10bd 4a58 2dbb
00000300: 4ea0 0d3d b36b d0bc e4b8 8ebd bc56 bb3c
00000310: 35d7 e03a e8fa f23c f37d a6bc 4463 8d3c
00000320: cd03 a3bc e2c6 a13c 6cb3 a93d e243 7e3d
00000330: 1e73 0dbd 7103 49bc 4f90 9a3d 06cd 74bb
00000340: 157e 163d 3f50 d83d 63ea eebc 496d 773c
00000350: e651 93bc 2862 003d a188 cd3d 5ab4 043d
00000360: 576f d93d f1fb bc3c dcb0 e53c b395 c03d
00000370: 2bf3 63bc 90a9 923d 9ae2 d7bd ea4d 9abd
00000380: 5744 c33c 353c 9a3d f546 8b3c 6078 fbbd
00000390: 2aae c43c cc34 10bd fa3e b0bc c1e9 953d
000003a0: d2ab 8b3d 38dc 90ba cbce 62bb f5aa 8a3d
000003b0: 3526 803d 4e1c d9bc f654 6ebd 7899 93bd
000003c0: 6db1 40bc 0996 8d3d 8bce 91bd b07b 513d
000003d0: 88ed 8dbc f044 673d 91a6 63bd 2bfc 23bd
000003e0: d811 93bb 8afa edbb 5099 d8bc 645d ce3c
000003f0: 8c84 d93d cb5f 153d 7bd6 1fbc 73e9 b9ba

blocks.0.feedforward.2.bias f4 [16]
0.07047698 -0.12602668 0.03565424 0.13836904 -0.06740227 -0.04137776 0.017930511 -0.02403089
0.120191544 0.09614439 0.028146822 -0.05665369 -0.052832313 0.084217615 -0.039287057 0.115810186
00000000: 3c56 903d 230d 01be 2e0a 123d 9db0 0d3e
00000010: 340a 8abd ba7b 29bd 02e3 923c 6edc c4bc
00000020: fc26 f63d 5ae7 c43d 2a94 e63c b30d 68bd
00000030: b266 58bd 497a ac3d 77eb 20bd e42d ed3d

blocks.0.attention.tokeys.weight f4 [16, 16]
0.16055004 -0.14326602 -0.012553696 0.026351342 0.1371342 -0.24962935 0.37039763 0.27909523
0.085791506 0.09029901 -0.14674994 0.11894107 -0.11367822 0.27156973 -0.081052326 0.3450369
-0.21835047 -0.14769843 -0.09829058 0.12752232 -0.073866054 0.044531222 0.24632987 0.07532143
-0.018297594 0.27743104 0.08366226 -0.054670863 -0.04150134 -0.07672437 0.20257615 0.107660815
-0.22122245 0.1792454 -0.22580123 -0.009092064 -0.00992677 0.25968683 0.2973352 -0.09218957
0.041091792 -0.23979352 0.18226635 -0.22340144 0.09592356 -0.08716605 -0.34544966 -0.059960254
-0.0992013 0.085925795 0.046413925 0.10403986 -0.10154503 0.20639981 -0.32120305 0.068514496
0.12571855 -0.006302251 0.21512964 0.30355817 -0.12646836 -0.0044714967 0.19976819 -0.032888837
0.22406177 0.12401399 0.26404676 -0.2689747 -0.15677609 -0.33338842 -0.06405626 0.2866701
-0.3110748 -0.10552212 0.2604001 0.13547452 -0.124248564 0.29836497 0.0005372978 0.16309161
-0.31242028 0.077526614 0.02434715 0.01890332 -0.013022479 0.27474588 0.10309085 0.20559286
0.26248536 0.40994564 -0.012532748 0.28859043 -0.16867386 -0.015182495 -0.017439254 0.13752934
-0.083131835 0.40648326 -0.2505052 -0.32539853 0.024377175 0.008112919 -0.114844725 -0.124345444
0.35532922 0.06556352 -0.07226312 0.17270854 0.27391034 0.1887638 -0.08876042 -0.0063627595
0.14622322 -0.13407166 -0.055947687 -0.083204515 -0.22703634 -0.030347329 0.061189722 -0.20324934
-0.1654836 0.051438123 0.05707803 -0.030751117 0.2657505 -0.25853246 -0.16203998 -0.1374555
-0.08957119 0.03559115 -0.059389018 -0.06821279 0.19049107 -0.27057245 -0.012606427 0.2725157
0.15161082 0.2053898 -0.08206516 0.23009011 -0.064109035 0.03007815 0.06481565 0.103945665
0.03975642 -0.1065548 -0.0041362275 -0.11471281 0.17856632 0.1417623 0.063672446 0.038022447
-0.058495786 -0.25363767 0.061084826 0.12018233 -0.24195495 -0.15542683 0.102250524 0.21958993
0.33131102 -0.021296086 0.12628308 0.16233559 -0.07624395 0.041560367 0.0457312 0.06369681
-0.30037168 0.025418092 0.2270408 -0.16331339 0.23861247 0.0645644 0.21592432 0.09337627
-0.10606082 0.12600996 0.018223401 0.32810682 0.1113597 0.29508004 0.19477652 0.2132656
0.03962763 -0.17532547 -0.0979874 -0.09261146 0.066384226 -0.23991491 -0.08111857 0.31351984
-0.119971216 0.20956647 -0.1817044 0.10780603 -0.2528334 0.0063994005 0.0805238 -0.040888373
0.041624293 0.14513035 0.06000713 -0.18370467 -0.03842463 0.07993879 -0.13927892 0.22918719
0.111329824 -0.2768816 0.1201035 0.19803354 0.03635654 0.25588524 -0.34525627 0.07735311
-0.013197818 0.17006832 0.096619554 -0.19969527 -0.04513664 -0.037806116 -0.28760874 -0.08966098
-0.1364542 0.061707783 -0.14301078 0.3068679 0.1483026 -0.046259075 0.06987149 0.11367982
-0.10675598 0.058884352 -0.26253873 0.17964213 -0.20598663 0.043861438 0.17634742 -0.13199379
-0.085609145 -0.14236875 0.12562819 0.004542909 -0.15203513 -0.09960446 -0.08277489 0.0013558294
0.16087769 -0.18786922 0.21644232 -0.18080033 -0.14221624 0.27017558 0.24717139 -0.1378146
00000000: 3b67 243e 54b4 12be 04ae 4dbc c5de d73c
00000010: e86c 0c3e d69e 7fbe c2a4 bd3e 92e5 8e3e
00000020: 75b3 af3d b0ee b83d 9e45 16be 6097 f33d
00000030: 20d0 e8bd 300b 8b3e c3fe a5bd ada8 b03e
00000040: 4497 5fbe 423e 17be 924c c9bd 3695 023e
00000050: 1647 97bd 5f66 363d e63d 7c3e 1f42 9a3d
00000060: d6e4 95bc 710b 8e3e 1e57 ab3d 8eee 5fbd
00000070: 4ffd 29bd ab21 9dbd 1f70 4f3e 467d dc3d
00000080: 2388 62be 1b8c 373e 7038 67be e1f6 14bc
00000090: e4a3 22bc acf5 843e 523c 983e e3cd bcbd
000000a0: de4f 283d 6f8c 75be 08a4 3a3e 59c3 64be
000000b0: 9273 c43d 1d84 b2bd c7de b0be e298 75bd
000000c0: 0d2a cbbd ddf9 af3d 871c 3e3d da12 d53d
000000d0: d7f6 cfbd 795a 533e ba74 a4be 5451 8c3d
000000e0: 5dbc 003e 1d83 cebb f24a 5c3e fa6b 9b3e
000000f0: ec80 01be a285 92bb 0890 4c3e 72b6 06bd
00000100: 7370 653e 0cfb fd3d 2331 873e 0db7 89be
00000110: e989 20be e3b1 aabe ee2f 83bd 6cc6 923e
00000120: 3245 9fbe fb1b d8bd 2953 853e d5b9 0a3e
00000130: 0876 febd 4bc3 983e 72d9 0c3a 7d01 273e
00000140: 8df5 9fbe 46c6 9e3d ad73 c73c 23db 9a3c
00000150: 3c5c 55bc 7eab 8c3e 4c21 d33d ef86 523e
00000160: 7b64 863e 65e4 d13e 2856 4dbc 20c2 933e
00000170: d7b8 2cbe 00c0 78bc c4dc 8ebc 7ed4 0c3e
00000180: 0641 aabd 931e d03e 3842 80be a39a a6be
00000190: a4b2 c73c 0cec 043c b633 ebbd d3a8 febd
000001a0: b6ed b53e 2b46 863d b0fe 93bd 82da 303e
000001b0: fa3d 8c3e 4c4b 413e 06c8 b5bd b27e d0bb
000001c0: 8abb 153e 154a 09be 6729 65bd 2167 aabd
000001d0: 377c 68be f69a f8bc 13a2 7a3d 9820 50be
000001e0: 8874 29be c8b0 523d a7ca 693d c4e9 fbbc
000001f0: 7310 883e 5e5e 84be cfed 25be 22c1 0cbe
00000200: 1a71 b7bd 07c8 113d e641 73bd 26b3 8bbd
00000210: 1710 433e 7988 8abe 308b 4ebc 2e87 8b3e
00000220: de3f 1b3e b451 523e c711 a8bd be9c 6b3e
00000230: 994b 83bd 7466 f63c 11be 843d 77e1 d43d
00000240: a1d7 223d 6739 dabd 3189 87bb 8dee eabd
00000250: 17da 363e 232a 113e b366 823d 6dbd 1b3d
00000260: 4799 6fbd ccdc 81be 1534 7a3d 2722 f63d
00000270: 0ac3 77be 3628 1fbe b968 d13d 2fdc 603e
00000280: 99a1 a93e 2175 aebc 5a50 013e 4d3b 263e
00000290: ca25 9cbd 343b 2a3d a450 3b3d 7973 823d
000002a0: 51ca 99be 9a39 d03c 627d 683e a03b 27be
000002b0: d456 743e 573a 843d 441b 5d3e 0f3c bf3d
000002c0: 6a36 d9bd c108 013e 3e49 953c 9efd a73e
000002d0: 8e10 e43d bb14 973e 7f73 473e 4c62 5a3e
000002e0: 9550 223d 8588 33be 9ead c8bd 14ab bdbd
000002f0: 74f4 873d 41ac 75be 7e21 a6bd ac85 a03e
00000300: 78b3 f5bd 9898 563e b810 3abe 68c9 dc3d
00000310: 6173 81be 10b2 d13b a9e9 a43d 917a 27bd
00000320: 3c7e 2a3d 0d9d 143e 09ca 753d 141d 3cbe
00000330: 2563 1dbd f3b6 a33d 229f 0ebe 0cb0 6a3e
00000340: e400 e43d 6dc3 8dbe d3f8 f53d 4ec9 4a3e
00000350: 98ea 143d 6403 833e 6ec5 b0be 4f6b 9e3d
00000360: a93b 58bc 6426 2e3e 79e0 c53d eb7c 4cbe
00000370: 33e1 38bd 96da 1abd 7441 93be 2da0 b7bd
00000380: a6ba 0bbe 4dc1 7c3d 6b71 12be ca1d 9d3e
00000390: a3dc 173e 287a 3dbd c918 8f3d f7d0 e83d
000003a0: e1a2 dabd b830 713d 7a6b 86be 1bf4 373e
000003b0: 29ee 52be 0da8 333d 6b94 343e 6129 07be
000003c0: d953 afbd 1dc9 11be ada4 003e afdc 943b
000003d0: 19af 1bbe 6cfd cbbd e285 a9bd 16b6 b13a
000003e0: 1fbd 243e ca60 40be 0ea3 5d3e b923 39be
000003f0: 22a1 11be 7454 8a3e 7f1a 7d3e 451f 0dbe

blocks.0.attention.toqueries.weight f4 [16, 16]
0.076827206 0.062694415 0.218388 -0.07280476 -0.15806152 -0.13322152 -0.35584012 0.0003430508
-0.13673918 0.23131512 0.14562348 -0.14951792 0.09717632 -0.09560632 -0.07583381 0.25040185
0.017009612 0.033156145 -0.05587282 0.1422425 -0.18195947 -0.030001288 0.27063838 -0.18535458
-0.0118886065 0.20133232 -0.18513064 0.27280766 -0.32852703 0.25005338 0.09269562 0.05859739
-0.16870019 0.0061902488 -0.024639772 -0.121584326 0.0632333 -0.21111703 -0.25467196 -0.15803842
-0.17282195 -0.20628427 -0.13986494 0.07587753 0.07266609 -0.3580622 -0.0013388769 0.3379652
0.03617776 -0.083974846 0.051804695 -0.023568248 0.2207952 0.11600138 -0.20483454 -0.17562342
0.026941774 0.10706863 -0.3291813 -0.07614929 0.030463032 -0.04037592 0.14270388 -0.15943092
-0.15893146 -0.007906675 0.18325244 0.15959688 -0.0058711483 0.004715596 -0.25487393 0.24192749
0.32411447 0.018392563 0.058433473 -0.11433216 -0.0172797 -0.18727525 0.018954417 0.1119947
0.055303365 0.11194315 0.1324112 -0.33380952 0.0016512393 0.14958522 -0.2417733 -0.16313519
-0.011858685 -0.042775776 0.14843677 0.14099613 0.14199571 0.17957127 -0.046149958 -0.13363074
0.21531491 -0.1010236 0.052301466 -0.0952331 -0.17060973 -0.1607806 0.023057468 -0.20916387
0.30928472 -0.28712058 0.05277997 0.10680772 0.23372844 0.10815308 0.3010799 -0.23668222
-0.20362137 -0.09488515 0.10393015 0.06479598 -0.12831232 0.14929189 0.2818418 -0.023678336
0.19731945 -0.033964895 -0.16641957 -0.0100013055 -0.35041815 -0.19084652 -0.042636547 -0.17387511
-0.068799265 0.27125174 0.24882635 -0.14131768 -0.177238 0.2911478 0.070753306 -0.052272886
-0.06204023 0.0019007497 -0.13374494 -0.17317049 0.08975253 0.26959226 0.015972309 0.04097842
-0.14407998 0.05853168 0.13553102 -0.039185114 0.26723775 0.14191964 -0.30500504 -0.17738049
-0.043646898 0.20488025 0.13958317 -0.11522405 -0.07677592 -0.03331224 -0.07696928 0.10895661
-0.21698518 -0.11939851 -0.007545668 0.31332886 -0.07546935 -0.07930752 0.18138266 0.055872146
-0.025916986 0.1524877 0.2405771 -0.06507222 -0.14175421 0.09902477 -0.2926962 0.06906683
0.30306017 -0.0064548384 0.004980848 -0.059516307 -0.09191259 -0.2654143 -0.11324593 -0.0120117925
-0.285839 0.021868123 -0.08779835 -0.022812104 -0.1489923 -0.052475035 0.055796858 0.22109357
-0.10644768 -0.13099536 -0.2568928 -0.1768109 0.038866512 0.00032970187 -0.064611994 -0.024315137
-0.19580744 -0.13964225 0.22509876 0.11325586 0.17022118 0.103676416 0.2789871 0.19957727
0.044469543 -0.012664897 -0.09918411 -0.032168906 0.1489395 -0.016228978 0.39352942 -0.17827073
0.12021367 -0.3811979 -0.12774727 -0.31369242 -0.2128972 -0.31430477 -0.23365273 -0.047809437
0.11266973 0.2645511 -0.13136297 -0.26620978 0.12374474 0.1252433 -0.10271695 0.054186698
0.10230624 -0.09988987 -0.085747875 -0.103575155 -0.158426 0.08219037 -0.10077405 -0.14229764
-0.14763576 -0.11961222 -0.15408513 0.12562156 0.14995222 0.22685407 0.12241063 0.039609145
0.17509544 0.068216994 -0.40411547 -0.13966869 -0.17269108 -0.09304005 0.18662293 0.08679851
00000000: 9557 9d3d ee65 803d 1ba1 5f3e a91a 95bd
00000010: e1da 21be 396b 08be ad30 b6be 80db b339
00000020: 5b05 0cbe dfdd 6c3e 521e 153e 3a1b 19be
00000030: 6104 c73d 3fcd c3bd c24e 9bbd ac34 803e
00000040: be57 8b3c bdce 073d e6da 64bd 05a8 113e
00000050: 9553 3abe 43c5 f5bc 1d91 8a3e 97cd 3dbe
00000060: 6ec8 42bc 0f2a 4e3e e392 3dbe 72ad 8b3e
00000070: b234 a8be ff06 803e 34d7 bd3d d103 703d
00000080: bebf 2cbe 92d7 ca3b 59d9 c9bc 3401 f9bd
00000090: 7680 813d 102f 58be 5d64 82be d3d4 21be
000000a0: 3df8 30be 2f3c 53be c138 0fbe ae65 9b3d
000000b0: f6d1 943d ee53 b7be 417d afba c609 ad3e
000000c0: 222f 143d 01fb abbd 2931 543d 3312 c1bc
000000d0: 2318 623e 2292 ed3d 25c0 51be a0d6 33be
000000e0: ffb4 dc3c cc46 db3d 748a a8be 29f4 9bbd
000000f0: 9c8d f93c 3861 25bd f720 123e dc41 23be
00000100: eebe 22be 008b 01bc 87a6 3b3e 5d6d 233e
00000110: c362 c0bb 4985 9a3b d67e 82be d7bb 773e
00000120: 55f2 a53e 00ac 963c f057 6f3d fb26 eabd
00000130: 288e 8dbc 15c5 3fbe 4b46 9b3c 7a5d e53d
00000140: c885 623d 7342 e53d cd96 073e 15e9 aabe
00000150: 666e d83a de2c 193e 6c93 77be e90c 27be
00000160: ee4a 42bc a735 2fbd cfff 173e 4a61 103e
00000170: 5367 113e 88e1 373e bd07 3dbd 7fd6 08be
00000180: 837b 5c3e 76e5 cebd 103a 563d 9209 c3bd
00000190: 51b4 2ebe aba3 24be 04e3 bc3c 0e2f 56be
000001a0: 915a 9e3e 7801 93be cf2f 583d 02be da3d
000001b0: 8256 6f3e 5d7f dd3d 2527 9a3e d35c 72be
000001c0: 1f82 50be 2553 c2bd 55d9 d43d c1b3 843d
000001d0: 4e64 03be f9df 183e 924d 903e 12f9 c1bc
000001e0: 1c0e 4a3e c61e 0bbd e469 2abe 84dc 23bc
000001f0: 026a b3be 456d 43be a9a3 2ebd 510c 32be
00000200: a1e6 8cbd 82e1 8a3e 56cc 7e3e 95b5 10be
00000210: e17d 35be 5311 953e 1ce7 903d 181c 56bd
00000220: e51d 7ebd 9422 f93a 6ff4 08be 9b53 31be
00000230: 2dd0 b73d ff07 8a3e 5cd8 823c fdd8 273d
00000240: b489 13be eabe 6f3d a5c8 0a3e 9280 20bd
00000250: 63d3 883e 6253 113e 9f29 9cbe 3ba3 35be
00000260: 17c7 32bd 21cc 513e e4ee 0e3e 96fa ebbd
00000270: b23c 9dbd 6a72 08bd 12a2 9dbd a524 df3d
00000280: 5d31 5ebe 3587 f4bd a741 f7bb a46c a03e
00000290: ad8f 9abd fb6b a2bd 60bc 393e 31da 643d
000002a0: dc4f d4bc bc25 1c3e d859 763e 9644 85bd
000002b0: 0428 11be 80cd ca3d 47dc 95be e972 8d3d
000002c0: b42a 9b3e 1c83 d3bb 6236 a33b 5fc7 73bd
000002d0: ab3c bcbd 62e4 87be 7bed e7bd 1ccd 44bc
000002e0: 7d59 92be c724 b33c 9fcf b3bd 73e0 babc
000002f0: 7091 18be 10f0 56bd 3f8b 643d 5a66 623e
00000300: 3e01 dabd a623 06be 7487 83be eb0d 35be
00000310: 7e32 1f3d d6db ac39 4b53 84bd 8a30 c7bc
00000320: bf81 48be 61fe 0ebe 4a80 663e b0f2 e73d
00000330: 764e 2e3e 4d54 d43d 66d7 8e3e fc5d 4c3e
00000340: b225 363d 6e80 4fbc 0a21 cbbd 8bc3 03bd
00000350: 9983 183e a2f2 84bc b07c c93e 9a8c 36be
00000360: 9632 f63d 5f2c c3be 2ed0 02be 4b9c a0be
00000370: b901 5abe 8eec a0be a942 6fbe d4d3 43bd
00000380: 63bf e63d 3e73 873e 0484 06be a64c 88be
00000390: e26d fd3d c83f 003e 445d d2bd dff2 5d3d
000003a0: ef85 d13d 0f93 ccbd 959c afbd 361f d4bd
000003b0: 6d3a 22be 6d53 a83d a062 cebd 79b6 11be
000003c0: d42d 17be 40f7 f4bd 7ec8 1dbe f0a2 003e
000003d0: 138d 193e 6f4c 683e 6db2 fa3d 333d 223d
000003e0: 384c 333e 5ab5 8b3d 39e8 cebe 4f05 0fbe
000003f0: eed5 30be c88b bebd 151a 3f3e 6bc3 b13d

blocks.0.attention.tovalues.weight f4 [16, 16]
0.15276286 -0.114706434 0.03824898 -0.1579745 0.056922905 0.055199735 -0.031819284 -0.23818064
-0.09450378 0.08097236 -0.030288352 0.058824964 0.08584763 0.20397252 0.11388317 0.24083011
-0.00030043547 0.13448732 -0.16921817 0.08036956 -0.04897498 0.045572594 -0.092558295 0.18127455
-0.04868854 -0.16953783 -0.1310823 -0.31109425 0.017756347 -0.14716296 -0.20514478 -0.05862637
-0.06446074 -0.014407955 0.09269659 0.08069149 -0.12723047 0.0040729702 -0.111176446 0.14509112
0.24023174 0.23983781 0.2180327 0.075735696 -0.42179087 0.26405233 0.30948696 0.2931435
0.123061076 0.07142858 0.069822684 0.21680732 0.09618057 -0.120435424 0.21393542 0.14812753
0.17512624 0.091980726 0.11648758 0.04274792 -0.084742464 0.174662 -0.09915638 -0.23662409
0.30897376 -0.11232665 -0.10064406 0.121277094 -0.021644715 -0.06696199 -0.3109172 0.18722247
-0.2885948 -0.29430783 -0.01303706 -0.3039836 -0.06844504 0.1637834 0.08389555 -0.33834726
0.13861133 -0.1466736 -0.016789861 0.21053529 -0.22328098 -0.19519755 0.12806402 0.15116908
0.049935475 -0.057984784 0.20437041 -0.11309821 0.12697288 0.28827363 -0.10688172 0.28326848
0.0055346265 -0.23864377 0.057537325 -0.012009611 0.28005347 -0.08852681 -0.17837271 0.19998983
-0.09114437 -0.0604653 0.11741915 0.0074642734 -0.040736403 0.0016681381 0.04166433 -0.07173656
0.31166092 0.11417335 -0.09941518 0.045252975 0.29427853 0.1453465 0.07338942 0.22892334
0.030344687 -0.026812278 0.18109147 0.010862023 -0.007939256 0.30763176 -0.28855857 -0.13688321
-0.015068092 0.21204968 0.061583906 0.25693652 0.27291584 -0.052661274 -0.10961401 -0.13458748
0.07012651 -0.041307174 0.18043843 -0.23248324 0.13533194 0.15279903 -0.17717499 -0.17005959
0.16399787 -0.1444084 -0.16854522 0.09330717 0.3791834 -0.007959662 -0.16723992 -0.15482077
0.16011544 0.039882526 -0.0730737 0.19156882 -0.061349448 0.3462955 0.22432718 -0.043252066
0.09139929 -0.20824032 -0.111212745 0.10936835 0.10408767 -0.106662266 0.38141683 -0.007188474
0.13364294 0.1091175 0.026568461 0.21567297 -0.20218559 -0.027852055 0.19822186 0.14837028
-0.042384647 -0.2429782 -0.10470292 0.26300874 0.17358914 -0.2086891 -0.11737844 -0.2679816
-0.196539 0.07380704 -0.12315752 -0.15238225 0.086012214 -0.15019175 0.025230246 0.13343099
-0.11111123 -0.10990769 0.2347813 0.029863924 -0.1417539 0.053314682 -0.030394562 -0.01907614
0.0228387 -0.16466002 0.1376732 -0.06934148 0.23371163 0.06961018 0.30002755 -0.02497223
0.17412885 0.23650277 0.27552372 0.09492858 0.17169721 -0.122397885 -0.057229012 -0.23063207
-0.19305757 0.1959314 -0.2862833 0.15781511 -0.20746204 -0.15520176 -0.034374695 -0.05257036
0.14764059 -0.1580287 0.29157016 0.03209918 -0.042958252 -0.2870384 -0.09160741 0.099701755
-0.15790299 0.0845959 -0.045433342 0.13253437 -0.09182171 -0.18700072 -0.050300125 0.26760757
0.2162573 -0.1635699 -0.065205656 -0.30841884 -0.1992106 0.07875572 -0.1486879 0.044154637
-0.2401586 -0.064815715 -0.14962295 -0.2445527 0.0179123 0.1315606 -0.02418884 -0.30705044
00000000: de6d 1c3e 35eb eabd f6aa 1c3d 11c4 21be
00000010: fe27 693d 1e19 623d f054 02bd a0e5 73be
00000020: 338b c1bd d6d4 a53d 471f f8bc 72f2 703d
00000030: e2d0 af3d 2cde 503e 943b e93d 2b9c 763e
00000040: c483 9db9 0bb7 093e 8747 2dbe cc98 a43d
00000050: fd99 48bd 54aa 3a3d 348f bdbd 09a0 393e
00000060: a26d 47bd 539b 2dbe 703a 06be bf47 9fbe
00000070: c275 913c e3b1 16be 7911 52be 3422 70bd
00000080: fe03 84bd 580f 6cbc b6d7 bd3d 9441 a53d
00000090: b448 02be 8d76 853b 7ab0 e3bd c492 143e
000000a0: 4fff 753e 0b98 753e f743 5f3e 511b 9b3d
000000b0: f9f4 d7be de31 873e 1375 9e3e e816 963e
000000c0: 7207 fc3d 2649 923d 32ff 8e3d bd02 5e3e
000000d0: 52fa c43d d9a6 f6bd e311 5b3e beae 173e
000000e0: 4b54 333e 6460 bc3d 0a91 ee3d 7118 2f3d
000000f0: 758d adbd 98da 323e 8012 cbbd 964d 72be
00000100: cf31 9e3e 840b e6bd 791e cebd 2060 f83d
00000110: 4250 b1bc 5e23 89bd 8a30 9fbe 3fb7 3f3e
00000120: b3c2 93be 84af 96be 6599 55bc bda3 9bbe
00000130: ea2c 8cbd d6b6 273e 6ed1 ab3d da3b adbe
00000140: 21f0 0d3e 9b31 16be e48a 89bc 9096 573e
00000150: c5a3 64be dee1 47be 3723 033e 11cc 1a3e
00000160: 2489 4c3d 7481 6dbd 7a46 513e 09a0 e7bd
00000170: 2e05 023e 9a98 933e cee4 dabd 9108 913e
00000180: d05b b53b 085f 74be 42ac 6b3d f6c3 44bc
00000190: 2b63 8f3e 8b4d b5bd 56a7 36be 22ca 4c3e
000001a0: e6a9 babd 76aa 77bd 7479 f03d dd96 f43b
000001b0: 37db 26bd 6da5 da3a 37a8 2a3d 9eea 92bd
000001c0: 0592 9f3e b8d3 e93d 309a cbbd 2f5b 393d
000001d0: adab 963e b7d5 143e 314d 963d e16a 6a3e
000001e0: 6c95 f83c 6ca5 dbbc 0b70 393e a0f6 313c
000001f0: a713 02bc e981 9d3e f3bd 93be 1d2b 0cbe
00000200: 29e0 76bc 8d23 593e 683f 7c3d 2f8d 833e
00000210: a0bb 8b3e 59b3 57bd 4f7d e0bd 4dd1 09be
00000220: 7d9e 8f3d b631 29bd dac4 383e 1610 6ebe
00000230: 7594 0a3e 5977 1c3e 5c6d 35be 1a24 2ebe
00000240: 0fef 273e ccdf 13be 1e97 2cbe d417 bf3d
00000250: 5424 c23e 3e69 02bc f140 2bbe 5689 1ebe
00000260: 4df5 233e dc5b 233d aaa7 95bd 9e2a 443e
00000270: 8f49 7bbd a54d b13e 06b6 653e 1429 31bd
00000280: 8d2f bb3d f33c 55be 82c3 e3bd 83fc df3d
00000290: eb2b d53d bf71 dabd 1149 c33e 4a8d ebbb
000002a0: b2d9 083e ff78 df3d 1aa6 d93c 60d9 5c3e
000002b0: bd09 4fbe fe29 e4bc acfa 4a3e 61ee 173e
000002c0: 869b 2dbd 47cf 78be 7c6e d6bd 15a9 863e
000002d0: 5ac1 313e 98b2 55be 1c64 f0bd e234 89be
000002e0: 8541 49be 2528 973d 033a fcbd 180a 1cbe
000002f0: 2c27 b03d decb 19be a9af ce3c 22a2 083e
00000300: 498e e3bd 4817 e1bd 826a 703e 30a5 f43c
00000310: ef27 11be 7f60 5a3d 04fe f8bc 9145 9cbc
00000320: 3a18 bb3c a39c 28be 34fa 0c3e e802 8ebd
00000330: 1a52 6f3e c88f 8e3d 369d 993e 9092 ccbc
00000340: d54e 323e c82d 723e 7211 8d3e ea69 c23d
00000350: 65d1 2f3e beab fabd f868 6abd d02a 6cbe
00000360: e2b0 45be 3ea2 483e ba93 92be 499a 213e
00000370: ee70 54be 36ed 1ebe 7bcc 0cbd 0554 57bd
00000380: 182f 173e 47d2 21be af48 953e 6e7a 033d
00000390: fef4 2fbd b2f6 92be aa9c bbbd 6f30 cc3d
000003a0: 52b1 21be 9d40 ad3d 5018 3abd 17b7 073e
000003b0: 050d bcbd 1e7d 3fbe 8107 4ebd dc03 893e
000003c0: 8e72 5d3e de7e 27be 8b8a 85bd 13e9 9dbe
000003d0: ddfd 4bbe ae4a a13d a441 18be 7edb 343d
000003e0: 23ec 75be 1abe 84bd c236 19be 066c 7abe
000003f0: d1bc 923c d2b7 063e ad27 c6bc b735 9dbe
